Finsentry.pth (torch, 56752 bytes, 57 tensors)

Stock_convpools.0.conv.weight f4 [3, 16]
0.49908626 0.50848883 -0.58458424 0.43860736 -0.48643956 -0.15030922 -0.44162688 -0.07492259
0.1743686 -0.26019254 -0.34129035 -0.2262164 -0.28309065 0.04271052 0.4836686 -0.13600092
0.32623237 -0.40250945 0.31203344 0.31409258 0.20336805 0.26735646 0.0208606 0.56164885
0.482835 -0.33517802 -0.2594319 0.27405548 -0.06403645 0.12233888 -0.097067125 0.56935376
0.33102086 -0.107365854 -0.50522983 -0.150811 -0.13330053 -0.108655244 -0.26916605 0.30962983
0.43074718 0.5485999 -0.09917206 -0.53887737 0.3058929 -0.03618303 -0.29075772 -0.54922056
00000000: 3c88 ff3e 532c 023f 50a7 15bf 2591 e03e
00000010: 9b0e f9be a9ea 19be eb1c e2be 0471 99bd
00000020: af8d 323e f537 85be 9cbd aebe 46a5 67be
00000030: 42f1 90be 3af1 2e3d 69a3 f73e d343 0bbe
00000040: ee07 a73e b815 cebe d9c2 9f3e bed0 a03e
00000050: b73f 503e f2e2 883e d9e3 aa3c 38c8 0f3f
00000060: 2636 f73e 749c abbe 42d4 84be 0051 8c3e
00000070: 8b25 83bd cf8c fa3d 21cb c6bd 2bc1 113f
00000080: 917b a93e a1e2 dbbd be56 01bf 336e 1abe
00000090: ef7f 08be a486 debd 22d0 89be cd87 9e3e
000000a0: e58a dc3e 0b71 0c3f b91a cbbd def3 09bf
000000b0: ff9d 9c3e a834 14bd 32de 94be b899 0cbf

Stock_convpools.0.conv.bias f4 [16]
0.03154801 -0.013383668 0.038870517 0.042424113 -0.010746943 0.011252705 0.02565233 0.022557087
-0.010618117 0.026044238 0.02513661 0.018960018 0.031179465 0.015992617 -0.01642025 0.022772502
00000000: 7c38 013d 2c47 5bbc b136 1f3d e8c4 2d3d
00000010: f213 30bc 445d 383c d624 d23c a4c9 b83c
00000020: 9cf7 2dbc ba5a d53c 4beb cd3c 0a52 9b3c
00000030: 146c ff3c f302 833c c383 86bc 668d ba3c

Stock_convpools.0.pool.att f4 [1, 32]
-0.08830098 -0.03635713 -0.11047879 0.17620537 0.041876446 0.009211397 0.31554326 0.42929173
-0.437542 -0.34613135 -0.22389962 -0.29943585 0.13343385 -0.042118844 0.20130098 0.14986001
0.20768806 0.23578228 0.020156113 0.4125321 -0.055696163 0.17026988 0.056414727 -0.20529902
-0.13812934 0.09282228 -0.06395378 -0.12095675 -0.13937333 0.6204829 -0.037419945 0.056243967
00000000: 25d7 b4bd 37eb 14bd b442 e2bd 2e6f 343e
00000010: a386 2b3d 66eb 163c e38e a13e 20cc db3e
00000020: 8105 e0be 2138 b1be f145 65be a84f 99be
00000030: e2a2 083e cf84 2cbd d821 4e3e e774 193e
00000040: 2eac 543e e970 713e 6f1e a53c 6837 d33e
00000050: a921 64bd 3a5b 2e3e 2113 673d e839 52be
00000060: c771 0dbe 9c19 be3d 33fa 82bd 2cb8 f7bd
00000070: e2b7 0ebe f8d7 1e3f a845 19bd 1360 663d

Stock_convpools.1.conv.weight f4 [16, 16]
0.36450088 -0.18652107 -0.30737942 -0.033085793 -0.008446203 -0.22933722 -0.06930175 0.40275618
-0.068008326 0.3982816 0.20853397 0.3943667 0.019051736 -0.09424235 -0.0021427008 0.030959135
-0.29343668 0.27344477 0.22158158 0.10274203 -0.38475996 0.38527995 -0.105696365 0.19554858
-0.37539208 0.105078384 0.27859083 0.077634685 0.096941896 -0.36317334 -0.36596704 -0.09521443
0.10556404 0.08930771 0.02219549 0.40602875 0.10172761 0.23157744 0.15466517 0.05862077
-0.13397811 0.45707548 0.3813243 0.22801593 0.31301576 0.05959661 0.06799501 0.0099688135
-0.17612001 -0.43990383 -0.15651754 0.27230424 -0.19363704 0.10734374 -0.20847638 -0.20532951
0.38725162 -0.3232458 -0.09659111 0.43537107 0.31300116 0.289545 0.3718547 0.36898983
0.033247475 0.2915473 -0.22019628 -0.27624834 -0.21190363 -0.14471619 -0.1788772 0.39933604
0.34707567 -0.19659337 0.3940936 0.1529797 -0.10885604 -0.22333711 -0.2711196 -0.031984366
-0.061011 0.00313542 0.22936904 -0.009113665 0.383401 -0.34348676 0.16651605 0.041451942
-0.10447671 -0.07015324 0.2419856 0.32020116 0.41751307 0.3311943 0.1130025 0.24257101
0.40951708 0.38128543 -0.016829824 0.288593 0.1592196 -0.2661104 -0.057686854 0.2560167
0.28004056 -0.30719706 0.26562962 0.3723625 0.16139786 0.12429839 -0.16606417 -0.08185484
0.31663173 -0.12276422 -0.3929334 -0.33021724 0.16012143 0.06011537 0.19099215 -0.21135937
-0.34344208 0.46872362 -0.010256977 0.39225075 0.22927015 -0.41399905 -0.18516316 0.21667798
-0.271049 -0.27428436 -0.016381824 0.32193664 -0.43674994 0.077892624 -0.098636836 -0.21417731
0.10969363 0.14872271 0.012305058 -0.25001952 -0.32849115 -0.21554476 0.3074327 -0.041843347
0.27937144 0.20392382 -0.39045572 0.34591362 0.27006358 0.31916824 0.23141374 -0.40138575
-0.34573427 -0.27627096 -0.013466943 0.13988036 0.18740834 -0.40036762 -0.029940523 0.21970405
-0.2640385 -0.10555503 0.3028625 0.330351 -0.20934175 0.17809093 -0.0256664 0.30500287
0.30515742 -0.3244762 0.060159862 0.05245405 -0.05803282 0.20090632 0.17389642 0.23273715
-0.04526294 0.32151338 -0.12247087 -0.07881646 -0.052887682 0.32372057 -0.17156388 -0.10255241
0.39372912 0.12452688 -0.25805277 0.27247646 0.29382423 -0.14319278 -0.09942905 -0.1480878
0.16096792 -0.25717172 0.1654726 -0.28877467 0.0018171383 -0.025312193 -0.41236985 -0.24106571
0.119734086 -0.16975461 0.36757362 -0.11127262 0.19855675 0.3274554 -0.2830582 0.113480136
-0.014268595 0.37576538 0.17666398 0.4299693 -0.07306124 -0.11325641 -0.35186902 -0.18518946
-0.078608505 -0.045411278 0.4331571 0.18937324 -0.2001098 -0.20486788 -0.12615906 -0.10310418
-0.36874568 -0.25015885 0.041070394 -0.08075096 -0.21352296 -0.36729658 0.42233852 -0.0031340946
-0.37139088 -0.06317306 -0.29705986 0.32823688 -0.0011266198 0.06981797 -0.12577604 -0.21950954
0.042489182 0.29357868 0.23172882 0.32143167 0.25466308 -0.4569965 -0.16142993 -0.1557382
-0.19971181 0.23201041 0.27864447 0.32092133 0.37795815 -0.008865968 0.20187406 -0.11626482
00000000: dc9f ba3e 61ff 3ebe d660 9dbe f884 07bd
00000010: f161 0abc 60d7 6abe 13ee 8dbd 0f36 ce3e
00000020: f347 8bbd 91eb cb3e ee89 553e 6fea c93e
00000030: 6312 9c3c 2202 c1bd 8e6c 0cbb 039e fd3c
00000040: 553d 96be f400 8c3e 48e6 623e 6a6a d23d
00000050: 42ff c4be 6a43 c53e 5677 d8bd e33d 483e
00000060: 6433 c0be 5633 d73d 75a3 8e3e effe 9e3d
00000070: 7989 c63d dbf1 b9be 0860 bbbe c8ff c2bd
00000080: f631 d83d f6e6 b63d 51d3 b53c 00e3 cf3e
00000090: 9156 d03d a322 6d3e 8c60 1e3e 551c 703d
000000a0: 8f31 09be cc05 ea3e f03c c33e 027d 693e
000000b0: 9a43 a03e 931b 743d f840 8b3d 3c54 233c
000000c0: ce58 34be 133b e1be 2246 20be 766b 8b3e
000000d0: ca48 46be 09d7 db3d d57a 55be e641 52be
000000e0: d845 c63e 7980 a5be 8fd1 c5bd f5e8 de3e
000000f0: b041 a03e 3e3f 943e bd63 be3e 3cec bc3e
00000100: 812e 083d b045 953e 227b 61be 6c70 8dbe
00000110: 44fd 58be 7b30 14be 962b 37be c675 cc3e
00000120: e7b3 b13e c64f 49be a3c6 c93e b6a6 1c3e
00000130: eaef debd 7cb2 64be 30d0 8abe 0a02 03bd
00000140: ace6 79bd 9e7b 4d3b b8df 6a3e 7b51 15bc
00000150: 234d c43e 7fdd afbe 2f83 2a3e 83c9 293d
00000160: e3f7 d5bd 80ac 8fbd 13cb 773e 68f1 a33e
00000170: 46c4 d53e 4d92 a93e db6d e73d 8964 783e
00000180: 39ac d13e d837 c33e b3de 89bc 76c2 933e
00000190: 760a 233e 9f3f 88be 0d49 6cbd 9f14 833e
000001a0: 7a61 8f3e ef48 9dbe 9b00 883e 4ca6 be3e
000001b0: 7b45 253e 2790 fe3d ba0c 2abe 83a3 a7bd
000001c0: 8e1d a23e cf6b fbbd 912e c9be 3c12 a9be
000001d0: dff6 233e 893b 763d 7293 433e 976e 58be
000001e0: a4d7 afbe 8bfc ef3e e10c 28bc 17d5 c83e
000001f0: cbc5 6a3e aff7 d3be 699b 3dbe d5e0 5d3e
00000200: efc6 8abe 006f 8cbe 2d33 86bc e1d4 a43e
00000210: b09d dfbe 2b86 9f3d 1c02 cabd 4c51 5bbe
00000220: 0ea7 e03d c44a 183e 279b 493c 8f02 80be
00000230: fe2f a8be c4b7 5cbe d267 9d3e ee63 2bbd
00000240: c609 8f3e 68d1 503e d0e9 c7be 971b b13e
00000250: c645 8a3e 056a a33e b9f7 6c3e 6f82 cdbe
00000260: 1504 b1be 6373 8dbe 74a4 5cbc cc3c 0f3e
00000270: f9e7 3f3e fcfc ccbe d445 f5bc 19fa 603e
00000280: 0e30 87be 3c2d d8bd cb10 9b3e c423 a93e
00000290: af5d 56be 785d 363e 5842 d2bc 5629 9c3e
000002a0: 983d 9c3e bf21 a6be 306a 763d 0fda 563d
000002b0: d2b3 6dbd 63ba 4d3e e711 323e a652 6e3e
000002c0: a265 39bd 679d a43e 02d2 fabd 866a a1bd
000002d0: c1a0 58bd b4be a53e 71ae 2fbe ff06 d2bd
000002e0: dd96 c93e f307 ff3d 7e1f 84be 0982 8b3e
000002f0: 2170 963e 21a1 12be 75a1 cbbd 54a4 17be
00000300: c6d4 243e 03ac 83be a671 293e 46da 93be
00000310: 0b2d ee3a 845b cfbc 2422 d3be eed9 76be
00000320: 2537 f53d 27d4 2dbe 9c32 bc3e e6e2 e3bd
00000330: 7652 4b3e 3ca8 a73e 01ed 90be 4668 e83d
00000340: d3c6 69bc 5264 c03e 67e7 343e f024 dc3e
00000350: 22a1 95bd faf2 e7bd 2d28 b4be 4ea2 3dbe
00000360: 7ffd a0bd 2d01 3abd c4c6 dd3e 0feb 413e
00000370: 95e9 4cbe e3c8 51be d72f 01be 4928 d3bd
00000380: 3ccc bcbe d214 80be 6e39 283d c260 a5bd
00000390: c3a5 5abe 4c0e bcbe c13c d83e 6265 4dbb
000003a0: f226 bebe e160 81bd 3b18 98be aa0e a83e
000003b0: 16ab 93ba b9fc 8e3d 6fcb 00be 1cc7 60be
000003c0: 2309 2e3d f24f 963e 524a 6d3e b192 a43e
000003d0: 3363 823e 72fb e9be e34d 25be d679 1fbe
000003e0: 4181 4cbe 2394 6d3e 7daa 8e3e cd4f a43e
000003f0: bb83 c13e 9142 11bc 13b8 4e3e 401c eebd

Stock_convpools.1.conv.bias f4 [16]
0.04069435 -0.030353172 0.010110285 0.036352664 -0.0264024 -0.022388618 -0.007676531 -0.025727106
0.0493508 0.031183656 0.01702776 0.0245914 0.042370453 -0.020282278 -0.021729464 0.032058187
00000000: 1eaf 263d 37a7 f8bc 9ca5 253c 88e6 143d
00000010: d949 d8bc 5668 b7bc 698b fbbb a7c1 d2bc
00000020: 1124 4a3d de74 ff3c cd7d 8b3c e773 c93c
00000030: a48c 2d3d 0527 a6bc fd01 b2bc 724f 033d

Stock_convpools.1.pool.att f4 [1, 32]
0.29985422 -0.11237052 0.3833699 -0.23288499 -0.10096927 0.3290518 -0.10019851 0.09568374
0.0035668497 0.3685752 0.21028152 0.17278482 0.5170368 -0.24101911 0.31770563 0.17518087
-0.07414739 -0.1606239 0.2353471 -0.2899957 -0.19594775 0.1677469 -0.51903707 0.19282298
-0.288424 0.28011918 0.1874767 -0.10505195 -0.005680785 0.044638757 0.12748653 0.20829318
00000000: 7e86 993e 8422 e6bd 0f49 c43e 6779 6ebe
00000010: fac8 cebd 7a79 a83e e034 cdbd d6f5 c33d
00000020: cfc1 693b e3b5 bc3e 0a54 573e 81ee 303e
00000030: 865c 043f b7cd 76be 50aa a23e 9d62 333e
00000040: 96da 97bd 977a 24be d5fe 703e 517a 94be
00000050: 87a6 48be d8c5 2b3e 9ddf 04bf 6373 453e
00000060: 4fac 93be c86b 8f3e e4f9 3f3e 7a25 d7bd
00000070: e125 babb 21d7 363d d48b 023e cf4a 553e

Stock_convpools.2.conv.weight f4 [16, 16]
0.2848418 0.09832541 0.36889353 0.14953426 0.20852238 -0.12316061 -0.03679456 -0.13006471
-0.30415478 0.2744626 0.35849306 0.21355994 -0.10576704 -0.20923094 -0.24447815 0.43766227
-0.15907934 -0.3142472 -0.39019918 -0.07840537 0.086323634 0.39996168 -0.38545853 -0.19418098
0.23562413 -0.24028522 -0.019343214 -0.116679944 0.1346362 0.3835903 -0.2429796 0.12199669
0.024707282 0.06408445 0.040368337 0.09354807 0.3997235 -0.2428512 -0.3335307 -0.24505334
0.25833526 -0.08375645 -0.20858811 0.3869388 0.13971677 -0.41730332 -0.28278324 -0.20038827
0.11709599 0.4651703 0.19475552 -0.23307136 0.11380273 0.04936043 0.032678068 -0.34025002
-0.17474706 -0.25944707 -0.045579806 0.3840576 -0.3626241 -0.33989272 0.1948635 0.20645529
-0.27521092 0.16568291 0.34709722 -0.015381894 -0.12253711 -0.0094693415 -0.06702831 -0.01451268
-0.29200146 0.24428931 0.19162124 0.24119991 0.35899976 0.25588417 0.4102138 -0.35325697
0.03623239 0.21168572 -0.1842583 -0.30904832 -0.059522375 -0.39276597 0.15356785 0.056779962
-0.058862098 0.13992068 -0.17790936 -0.30620635 0.16670874 0.014299273 0.2782155 0.034070216
-0.11167615 -0.19980697 -0.3749267 -0.19932026 0.03417934 0.370698 -0.40493527 -0.19584563
-0.049456682 0.19279358 0.43515396 -0.33564505 0.41754976 -0.0005882079 0.12991181 0.25007173
-0.09381728 -0.3903534 0.23967078 -0.01147337 0.12419869 -0.059310578 -0.30052406 0.24360128
0.041660897 0.32508668 -0.19970597 0.0021283189 0.06013623 -0.28233835 -0.22071368 -0.24033757
0.41723606 -0.26299205 -0.2291914 0.17902769 0.44554153 -0.09867912 0.4366204 0.22432733
0.29676762 -0.3557794 0.2337129 0.24084087 -0.21386686 -0.15313524 0.061047345 -0.10631099
-0.28140393 -0.2849985 0.1648654 -0.27836004 -0.043560628 0.2915812 -0.13128 -0.19854414
0.18617897 -0.17810574 0.28555477 0.37683767 0.052103847 0.018935421 -0.12932743 0.05176384
0.16121727 -0.23809302 -0.059902444 0.23222844 0.07856463 -0.045476038 0.19358474 0.32440415
-0.05455153 -0.118566096 0.3158136 0.00043388727 0.09014121 0.3876673 0.26044378 0.17789613
-0.32076806 0.18061607 -0.03230612 -0.30576727 0.34506065 -0.1552151 0.27414995 -0.300845
0.1812682 -0.36973253 0.03331708 -0.2969422 -0.17039847 0.07887291 -0.06287013 0.42019403
0.2529154 0.44733402 -0.43515897 0.33540866 -0.08353111 0.3932895 0.165109 0.18533674
0.2672927 0.3212224 -0.055317357 0.392518 -0.30228478 0.203419 0.036161426 -0.085064314
0.10347185 -0.33578572 0.11428854 -0.2201845 0.32738164 -0.34212717 -0.080923945 0.06220296
-0.35525283 0.22181383 -0.10000469 -0.1882803 -0.27811843 0.03483299 0.3717591 -0.34822318
0.05724987 0.27166766 0.19038524 0.12435882 0.21021959 0.36912864 -0.23419343 -0.4258284
-0.13532642 -0.104718655 -0.33377388 0.42140445 -0.27502596 0.015481114 -0.21967053 0.0069737597
0.10749749 0.16395754 -0.24098718 -0.11701488 -0.35367063 -0.3502996 0.2978524 0.020816065
-0.3965899 -0.3707785 0.47577724 0.12677018 0.25287506 0.038833927 0.27169672 -0.3744697
00000000: c9d6 913e d55e c93d 9ddf bc3e 821f 193e
00000010: e486 553e a13b fcbd e4b5 16bd af2f 05be
00000020: 2dba 9bbe 5d86 8c3e 678c b73e 75af 5a3e
00000030: 649c d8bd a340 56be 7b58 7abe 4515 e03e
00000040: b2e5 22be 02e5 a0be 30c8 c7be ff92 a0bd
00000050: 72ca b03d c7c7 cc3e d25a c5be 61d7 46be
00000060: 7447 713e 540d 76be a975 9ebc e5f5 eebd
00000070: 12de 093e f365 c43e a5cf 78be 67d9 f93d
00000080: ed66 ca3c b53e 833d 4559 253d 2196 bf3d
00000090: 8fa8 cc3e fcad 78be 89c4 aabe 43ef 7abe
000000a0: 8544 843e 8088 abbd 1f98 55be d81c c63e
000000b0: ea11 0f3e c8a8 d5be f7c8 90be 9532 4dbe
000000c0: 06d0 ef3d cd2a ee3e fe6d 473e 42aa 6ebe
000000d0: 6811 e93d 2a2e 4a3d 70d9 053d 4035 aebe
000000e0: e5f0 32be 3fd6 84be e4b1 3abd 33a3 c43e
000000f0: dea9 b9be 6b06 aebe 4c8a 473e 0469 533e
00000100: 72e8 8cbe c8a8 293e bab6 b13e 5704 7cbc
00000110: bcf4 fabd 4c25 1bbc 2346 89bd 97c6 6dbc
00000120: 3781 95be fa26 7a3e 5c38 443e 1cfd 763e
00000130: d1ce b73e 4003 833e 8b07 d23e 19de b4be
00000140: 6a68 143d 24c4 583e 35ae 3cbe 953b 9ebe
00000150: bccd 73bd 9f18 c9be e440 1d3e 1b92 683d
00000160: 6219 71bd 5e47 0f3e df2d 36be 14c7 9cbe
00000170: b2b5 2a3e 7f47 6a3c 4372 8e3e 368d 0b3d
00000180: 77b6 e4bd 339a 4cbe 64f6 bfbe 9c1a 4cbe
00000190: a3ff 0b3d 21cc bd3e ad53 cfbe c28b 48be
000001a0: 1793 4abd ae6b 453e 80cc de3e abd9 abbe
000001b0: 15c9 d53e f731 1aba 9a07 053e 6709 803e
000001c0: 4623 c0bd 67dc c7be 426c 753e cdfa 3bbc
000001d0: e25b fe3d a6ef 72bd 4ade 99be 9d72 793e
000001e0: 9ea4 2a3d c371 a63e b97f 4cbe 447b 0b3b
000001f0: 6851 763d a78e 90be c402 62be 0d1b 76be
00000200: f79f d53e e5a6 86be 26b1 6abe 0953 373e
00000210: 051e e43e 4718 cabd b68c df3e 10b6 653e
00000220: edf1 973e b828 b6be 6f52 6f3e fd9e 763e
00000230: eaff 5abe 7ccf 1cbe c80c 7a3d 94b9 d9bd
00000240: 2d14 90be 53eb 91be 7ad2 283e 3585 8ebe
00000250: a16c 32bd 224a 953e 446e 06be 284f 4bbe
00000260: b3a5 3e3e 5a61 36be 3c34 923e def0 c03e
00000270: d86a 553d 751e 9b3c 696e 04be 5206 543d
00000280: 2416 253e a8ce 73be 445c 75bd 4bcd 6d3e
00000290: 7ee6 a03d 1545 3abd 143b 463e 4d18 a63e
000002a0: 6d71 5fbd c8d2 f2bd 52b2 a13e 5d7b e339
000002b0: f49b b83d 547c c63e e358 853e 672a 363e
000002c0: b63b a4be 6bf3 383e 6c53 04bd 878d 9cbe
000002d0: caab b03e b5f0 1ebe 625d 8c3e 5b08 9abe
000002e0: 5f9e 393e 954d bdbe 7e77 083d cf08 98be
000002f0: f07c 2ebe 1f88 a13d 0ec2 80bd ac23 d73e
00000300: 217e 813e f708 e53e 28cd debe afba ab3e
00000310: 5c12 abbd 3e5d c93e 5512 293e eac8 3d3e
00000320: 97da 883e 4377 a43e 7494 62bd 1ff8 c83e
00000330: 12c5 9abe 124d 503e 011e 143d 3336 aebd
00000340: 0de9 d33d 1bec abbe 1c10 ea3d 0c78 61be
00000350: 919e a73e 4b2b afbe 74bb a5bd 88c8 7e3d
00000360: b3e3 b5be 2a23 633e 42cf ccbd 8dcc 40be
00000370: 8a65 8ebe 0aad 0e3d 3557 be3e 4f4a b2be
00000380: d77e 6a3d 0618 8b3e 59f4 423e d6af fe3d
00000390: ce43 573e 6efe bc3e 67d0 6fbe 2e06 dabe
000003a0: 0293 0abe bc76 d6bd 69e4 aabe 53c2 d73e
000003b0: 34d0 8cbe 80a4 7d3c 50f1 60be 2384 e43b
000003c0: a527 dc3d 7ce4 273e 58c5 76be 7fa5 efbd
000003d0: 5114 b5be 785a b3be 1c80 983e 7486 aa3c
000003e0: d50d cbbe aed6 bdbe 1399 f33e 0bd0 013e
000003f0: d778 813e 5310 1f3d d51b 8b3e 7eba bfbe

Stock_convpools.2.conv.bias f4 [16]
0.02605566 0.04495182 -0.00848484 -0.0068505816 0.021790542 -0.01285708 0.042230755 -0.0046094693
0.03504171 0.0 0.041251604 0.030500688 0.0 -0.015964104 0.020074101 0.025206687
00000000: ae72 d53c 661f 383d 0004 0bbc d87a e0bb
00000010: 1482 b23c 81a6 52bc 28fa 2c3d 080b 97bb
00000020: e587 0f3d 0000 0000 71f7 283d 94dc f93c
00000030: 0000 0000 27c7 82bc 7172 a43c 417e ce3c

Stock_convpools.2.pool.att f4 [1, 32]
-0.18972862 0.28960428 -0.20272322 0.043214343 0.2869615 0.13195898 -0.04452614 -0.42432204
0.25911888 -0.2682481 -0.14575994 0.24883084 0.31999055 0.08597356 0.045934025 0.085295826
-0.49188372 0.3078458 -0.1571798 0.08253263 -0.9410438 0.29140288 -0.022643775 -0.3185922
0.013311366 0.008154784 -0.4845717 -0.083108045 0.2665745 -0.12388639 0.036463182 0.0040150364
00000000: 3848 42be 0347 943e ad96 4fbe 8601 313d
00000010: 9eec 923e 4120 073e 0b61 36bd bd40 d9be
00000020: 3bab 843e d157 89be 1842 15be 83cd 7e3e
00000030: cdd5 a33e e812 b03d 5125 3c3d 94af ae3d
00000040: 2fd8 fbbe f79d 9d3e bef3 20be de06 a93d
00000050: 3fe8 70bf c232 953e 707f b9bc 841e a3be
00000060: ea17 5a3c a59b 053c c819 f8be 8d34 aabd
00000070: 747c 883e 26b8 fdbd 6b5a 153d 9190 833b

Guarantee_convpools.0.conv.weight f4 [3, 16]
-0.040758304 0.4358883 0.23520648 0.4320611 0.421632 0.28737277 0.5324113 0.13763796
0.48215958 0.57409626 0.47457474 -0.38827848 -0.051241647 0.17226516 -0.06642033 0.28906205
-0.25395754 0.5794284 0.4583452 0.3088814 -0.43019786 0.039085064 -0.29174024 -0.057592217
-0.043842826 -0.1258404 -0.23270579 0.2154894 0.58636445 -0.05734812 -0.55790335 -0.42809096
-0.37459552 -0.27136672 -0.12730007 -0.110874146 -0.336428 -0.55191123 0.44516483 0.556187
-0.25668162 0.30921584 -0.24717543 -0.043421075 -0.14204778 0.35581762 0.28862843 0.2177045
00000000: 2ef2 26bd c02c df3e f8d9 703e 1d37 dd3e
00000010: 26e0 d73e 8622 933e 1b4c 083f f7f0 0c3e
00000020: 9fdd f63e f9f7 123f 76fb f23e 70cc c6be
00000030: c3e2 51bd 4766 303e 6207 88bd f1ff 933e
00000040: b906 82be 6b55 143f 39ac ea3e b425 9e3e
00000050: e542 dcbe a917 203d fa5e 95be d1e5 6bbd
00000060: 8994 33bd 4edc 00be 6d4a 6ebe 41a9 5c3e
00000070: fb1b 163f dde5 6abd c1d2 0ebf bd2e dbbe
00000080: fcca bfbe 94f0 8abe f35a 02be fc11 e3bd
00000090: 4a40 acbe 0e4a 0dbf a5ec e33e 4562 0e3f
000000a0: c66b 83be 8a51 9e3e 8e1b 7dbe 4cda 31bd
000000b0: f974 11be ba2d b63e 1bc7 933e eeed 5e3e

Guarantee_convpools.0.conv.bias f4 [16]
0.030363467 0.04162241 -0.028714376 -0.03784035 0.02871729 -0.02226394 0.018642621 0.03643471
-0.019860083 0.01743702 0.027329762 0.0376633 0.038394723 0.042464633 0.03350537 -0.026814105
00000000: cebc f83c 437c 2a3d 693a ebbc 7cfe 1abd
00000010: 8640 eb3c de62 b6bc 69b8 983c 903c 153d
00000020: 9db1 a2bc 15d8 8e3c aae2 df3c d544 1a3d
00000030: c943 1d3d 65ef 2d3d ed3c 093d 41a9 dbbc

Guarantee_convpools.0.pool.att f4 [1, 32]
-0.082424715 0.3496893 0.020039562 -0.05404236 -0.16493148 0.055462595 -0.2027573 -0.14112599
-0.2642262 0.10755343 -0.70953006 -0.13034965 -0.07727382 -0.0048392806 -0.020788064 0.4199876
-0.7658864 -0.109735936 -0.6514587 -0.41916248 -0.19337898 -0.024307424 0.41357735 0.00551872
-0.19054806 0.0516145 -0.10166233 -0.03827177 -0.36521274 -0.16387711 -0.09695408 0.084092714
00000000: 4ace a8bd 7a0a b33e 022a a43c 865b 5dbd
00000010: cce3 28be bf2c 633d 9c9f 4fbe 5583 10be
00000020: a848 87be f944 dc3d c3a3 35bf 617a 05be
00000030: bd41 9ebd d492 9ebb bb4b aabc 9d08 d73e
00000040: 2211 44bf 3cbd e0bd ffc5 26bf 779c d6be
00000050: 2405 46be 5d20 c7bc 69c0 d33e 61d6 b43b
00000060: 081f 43be ba69 533d 5734 d0bd dcc2 1cbd
00000070: 2afd babe 67cf 27be dc8f c6bd cd38 ac3d

Guarantee_convpools.1.conv.weight f4 [16, 16]
0.24529685 -0.09155891 0.3684894 -0.30033237 0.14130175 -0.018761711 0.32436225 -0.39620963
0.18602344 0.045347486 -0.018075775 -0.44629028 -0.042520717 0.22037993 0.039947785 0.2785394
0.41639677 0.07973941 0.0019018257 -0.1413648 -0.32353005 -0.4128381 0.4168486 -0.39020768
-0.11821988 0.09533183 0.039917823 -0.35861418 -0.18780132 0.0024247821 -0.27077225 -0.3118952
-0.24645111 0.107443094 0.24491674 0.40643218 0.015210754 -0.14039767 -0.37802383 0.26519886
-0.43287644 -0.032943998 0.022758009 0.24500692 -0.3603214 -0.21903232 0.2784865 -0.21928032
-0.11927312 -0.26837337 -0.2737325 -0.12280877 0.2029786 -0.21880609 -0.22802162 -0.0775585
-0.11643346 0.22489806 0.26747409 0.36104584 0.023392415 0.31486338 -0.03158267 -0.40224266
-0.3589401 -0.20185618 0.15307648 -0.4125666 -0.37533188 0.05939358 0.40951878 0.3010161
0.34699288 0.44434494 -0.24097326 0.21118373 -0.4200719 -0.24629994 0.3458992 0.44246626
0.16283289 -0.064476095 0.3215986 -0.1736626 -0.003137184 0.4392242 -0.16956723 0.2713575
0.20344183 -0.3567324 -0.34413743 -0.19619417 0.42338815 0.2089931 -0.006127854 -0.2507638
0.11886029 0.38432744 0.20434487 -0.024649505 0.16269794 -0.24144088 -0.2747289 0.18838747
0.11893592 -0.07570446 -0.2384404 -0.07064962 -0.2719683 0.34752586 0.31587696 0.2293965
-0.083251804 -0.16333224 0.45975038 -0.3255208 -0.41995946 -0.21109919 0.27477685 0.14533123
-0.24499466 0.45302743 0.2728287 0.28718492 0.35890976 0.22857824 -0.025432272 0.3192843
0.42242572 0.19801928 -0.33411375 -0.12506881 0.030632531 0.2716222 0.17023937 -0.0502053
-0.39931604 -0.33043152 -0.3728085 0.008069014 -0.42526168 -0.3026676 0.11456911 -0.32774404
-0.39625326 0.07874877 0.35413456 0.32626158 0.0282545 0.042559464 0.31721735 -0.38474908
-0.3975415 0.34442097 -0.3084795 -0.29044354 0.31143633 0.06691607 -0.16388044 0.043690633
0.33530828 -0.05111453 -0.2149903 0.4256799 0.37169275 -0.099732704 0.22101662 -0.20146383
-0.19653118 0.2102684 0.27296144 0.2278537 -0.4160276 -0.08874741 0.0053852545 0.05893288
0.3306086 0.29208294 0.3823092 -0.121579625 0.3212669 0.02558284 0.2876528 -0.2880402
-0.33469108 -0.0040818206 0.1525773 0.04003232 -0.20893246 0.4050092 -0.32867607 0.41739798
0.36465406 0.28828663 0.33823746 -0.27566874 -0.0012384788 -0.27020392 -0.36679876 0.25805187
-0.286689 0.40577722 0.37081844 0.11489725 0.21978404 -0.31131303 0.10448196 0.351585
0.04510008 0.18250631 0.45046544 0.033189368 0.28655675 0.049861144 0.22466765 -0.26519358
-0.27937925 -0.28685778 0.21798424 -0.25444195 -0.34157392 -0.34212208 -0.0731253 0.317516
-0.34959614 0.091910586 0.28564796 -0.22389045 0.15874451 0.079316266 0.34318265 0.2985784
0.4022617 0.07926501 0.009031355 0.386148 0.005053745 -0.20427966 -0.06614981 -0.15425341
-0.032739203 -0.32188293 -0.17917167 0.37538952 0.27425942 0.13846375 -0.19298828 -0.076044396
0.23318262 -0.17987208 -0.357753 -0.389484 -0.3195182 -0.24122857 -0.10516233 -0.05754936
00000000: 192f 7b3e 3d83 bbbd a5aa bc3e 2ac5 99be
00000010: 68b1 103e 29b2 99bc cf12 a63e fddb cabe
00000020: ee7c 3e3e 49be 393d a613 94bc 2980 e4be
00000030: 342a 2ebd 47ab 613e 4aa0 233d b79c 8e3e
00000040: f531 d53e 6a4e a33d ae46 f93a efc1 10be
00000050: bba5 a5be 845f d3be 2e6d d53e 4dc9 c7be
00000060: 441d f2bd 563d c33d df80 233d 479c b7be
00000070: fd4e 40be 18e9 1e3b a9a2 8abe bab0 9fbe
00000080: ae5d 7cbe 200b dc3d 74cb 7a3e e117 d03e
00000090: 8736 793c 68c4 0fbe 578c c1be 25c8 873e
000000a0: fba1 ddbe 49f0 06bd 016f ba3c 18e3 7a3e
000000b0: 0c7c b8be 024a 60be c895 8e3e 058b 60be
000000c0: 7745 f4bd 3c68 89be ab26 8cbe 2a83 fbbd
000000d0: 9fd9 4f3e b40e 60be 807e 69be fed6 9ebd
000000e0: aa74 eebd ad4b 663e 5df2 883e 00db b83e
000000f0: 73a1 bf3c c635 a13e d45c 01bd c0f2 cdbe
00000100: ffc6 b7be 63b3 4ebe 15c0 1c3e ee3b d3be
00000110: 802b c0be af46 733d 72ac d13e c81e 9a3e
00000120: 0da9 b13e 2e81 e33e b2c1 76be 8c40 583e
00000130: aa13 d7be 0d36 7cbe b319 b13e f08a e23e
00000140: aabd 263e 0b0c 84bd 92a8 a43e 9cd4 31be
00000150: 3799 4dbb ffe1 e03e 08a3 2dbe 5fef 8a3e
00000160: 0e53 503e a1a5 b6be c832 b0be 20e7 48be
00000170: 55c6 d83e 4a02 563e 2acc c8bb 1d64 80be
00000180: 066d f33d 91c6 c43e c83f 513e c2ed c9bc
00000190: 4a9a 263e 473c 77be 44a9 8cbe a5e8 403e
000001a0: ad94 f33d f10a 9bbd b829 74be bfb0 90bd
000001b0: 6e3f 8bbe e9ee b13e a0ba a13e ebe6 6a3e
000001c0: ec7f aabd 9140 27be 6764 eb3e aaaa a6be
000001d0: ed04 d7be 632a 58be 8daf 8c3e b6d1 143e
000001e0: e1df 7abe 36f3 e73e 34b0 8b3e e709 933e
000001f0: 05c3 b73e 6a10 6a3e 5757 d0bc 3b79 a33e
00000200: 2f48 d83e 91c5 4a3e f510 abbe 0a12 00be
00000210: 13f1 fa3c 1112 8b3e 3b53 2e3e 13a4 4dbd
00000220: 2773 ccbe 522e a9be c1e0 bebe e633 043c
00000230: e6bb d9be 3ff7 9abe 36a3 ea3d 11ce a7be
00000240: b5e1 cabe 0947 a13d 2051 b53e c20b a73e
00000250: fb75 e73c d552 2e3d 506a a23e d5fd c4be
00000260: 8f8a cbbe f257 b03e 06f1 9dbe 04b5 94be
00000270: 9574 9f3e 4b0b 893d 46d0 27be f3f4 323d
00000280: 87ad ab3e 785d 51bd 6b26 5cbe b7f2 d93e
00000290: 834e be3e a940 ccbd 2e52 623e 894c 4ebe
000002a0: 783f 49be 9950 573e 9ac1 8b3e 7b52 693e
000002b0: 9201 d5be 34c1 b5bd ca76 b03b 9b63 713d
000002c0: 8845 a93e e58b 953e 08be c33e bdfe f8bd
000002d0: 187d a43e 1b93 d13c 3a47 933e 017a 93be
000002e0: a15c abbe cbc0 85bb 393d 1c3e eef8 233d
000002f0: 64f2 55be 5e5d cf3e 3b48 a8be 30b5 d53e
00000300: f0b3 ba3e 4e9a 933e 762d ad3e 7424 8dbe
00000310: 7454 a2ba 2b58 8abe 0ccd bbbe 601f 843e
00000320: e7c8 92be 08c2 cf3e eadb bd3e 404f eb3d
00000330: 110f 613e 6c64 9fbe a3fa d53d f302 b43e
00000340: ddba 383d efe2 3a3e 68a3 e63e 93f1 073d
00000350: 91b7 923e 333b 4c3d 470f 663e 74c7 87be
00000360: cc0a 8fbe 06df 92be 4337 5f3e 3746 82be
00000370: c7e2 aebe a02a afbe b8c2 95bd 7591 a23e
00000380: 44fe b2be 9e3b bc3d 7340 923e 8a43 65be
00000390: ec8d 223e 9170 a23d a3b5 af3e 45df 983e
000003a0: 3ff5 cd3e b255 a23d 40f8 133c 31b5 c53e
000003b0: e399 a53b b02e 51be 8d79 87bd 9bf4 1dbe
000003c0: 8b19 06bd d7cd a4be c778 37be 0e33 c03e
000003d0: bb6b 8c3e 71c9 0d3e b89e 45be 2abd 9bbd
000003e0: 6dc7 6e3e 6330 38be 672b b7be 726a c7be
000003f0: e497 a3be 9f04 77be 595f d7bd e1b8 6bbd

Guarantee_convpools.1.conv.bias f4 [16]
0.03691848 0.041967697 0.0377661 0.008106268 0.013532059 0.018602 0.039703958 0.039492983
0.0068792272 0.03655006 0.037196163 -0.022393465 -0.0098450715 -0.022520173 0.012026722 0.029946825
00000000: d537 173d 52e6 2b3d a0b0 1a3d 27d0 043c
00000010: 92b5 5d3c 3963 983c 9ea0 223d 65c3 213d
00000020: 246b e13b 84b5 153d 015b 183d 8072 b7bc
00000030: 394d 21bc 3a7c b8bc ba0b 453c 0b53 f53c

Guarantee_convpools.1.pool.att f4 [1, 32]
-0.1397438 0.009148912 0.11959096 -0.064979486 -0.00723016 0.067325085 0.14361972 0.3245878
0.0014445536 0.061656136 -0.09518195 0.044805065 -0.35560033 0.24466702 -0.17409135 0.095575586
-0.08559653 0.114793055 0.22723465 0.057624206 -0.028046874 -0.21500513 -0.025123982 -0.12528402
-0.25412726 0.35042793 0.10427299 -0.22286096 0.36796883 0.5037531 -0.29231474 0.33976027
00000000: 0019 0fbe 51e5 153c 1bec f43d f713 85bd
00000010: faea ecbb bce1 893d 0c11 133e 5f30 a63e
00000020: 2d57 bd3a 258b 7c3d c1ee c2bd 8485 373d
00000030: 3f11 b6be fe89 7a3e 0145 32be 22bd c33d
00000040: 3c4d afbd 9f18 eb3d 33b0 683e 5c07 6c3d
00000050: 8fc2 e5bc 4e2a 5cbe cfd0 cdbc 744a 00be
00000060: f81c 82be 4a6b b33e 148d d53d aa35 64be
00000070: 6966 bc3e f7f5 003f 47aa 95be 0ff5 ad3e

Guarantee_convpools.2.conv.weight f4 [16, 16]
0.39406255 -0.4070177 -0.19722651 0.18775856 -0.14644763 0.027828582 0.34792483 0.40114433
-0.29800624 -0.061678518 0.06807148 0.20431632 -0.35644305 0.21964838 -0.002379003 0.28687543
0.3845344 0.20312104 -0.18331996 0.3547795 0.4305783 -0.16269116 0.3218351 0.3927031
0.05091648 -0.19202302 -0.30760464 -0.040195636 0.10434654 0.20004678 -0.11411846 0.08520733
0.40752906 -0.22979802 -0.33437902 0.28172418 0.045064118 0.28045377 -0.25552142 -0.0987544
-0.1700136 0.19062412 0.31486613 -0.22639707 -0.19176622 -0.3853977 0.29118627 -0.30840456
0.05594896 0.36217234 0.37520662 0.31060308 0.056601245 0.015107667 0.10970295 -0.1277387
0.4089045 0.1447875 0.39715484 -0.06338081 0.08372262 0.34035555 0.35228172 0.21759534
-0.015796527 -0.2329666 -0.42372358 -0.28384063 0.2096734 -0.058391772 -0.32045802 0.10452527
-0.3729359 -0.43273774 -0.044816952 0.31918123 0.30236694 -0.35288432 -0.06084476 0.3197951
0.13393374 0.06679386 0.3053023 -0.2938447 0.3656615 0.3335433 0.38411716 0.28445256
0.25394937 -0.19945191 0.29265118 0.30750164 -0.37333968 0.17446509 -0.032461423 0.08449853
0.25201306 -0.04185748 -0.095719986 0.3145725 0.3396532 -0.1489296 -0.21191539 0.23740754
0.36139566 0.13876493 0.24944207 -0.25034565 -0.37050033 -0.11278658 0.07184 0.25124756
0.26482588 0.34316984 -0.20570236 0.31744948 0.167191 0.17164735 -0.18830296 0.36745435
0.27095905 -0.046494335 0.009877346 0.075410575 -0.081353575 0.13352981 -0.24393024 0.10621917
-0.0979158 0.006214112 0.25986442 0.005005327 0.25805596 -0.14145266 -0.08116453 0.39499202
0.26879153 0.35108528 -0.39500806 0.27195916 -0.18425703 -0.18063053 0.17539246 -0.24848466
0.047731593 -0.36157244 -0.026738668 -0.29485002 -0.07670355 0.2890593 0.09926132 0.3785467
-0.04293005 -0.29794 -0.28295928 -0.066588946 0.132206 -0.039883718 0.34133023 0.365194
0.4461747 0.18458638 0.42205527 -0.056284096 0.36684367 0.16619428 -0.014386465 0.11445317
-0.22744575 -0.15314807 0.08219259 -0.15656851 -0.40605563 -0.282037 0.11199679 0.30216956
-0.035686996 -0.4293298 -0.3876155 0.31194362 0.07903662 0.10122618 0.02801336 -0.32852527
0.0165079 0.3422106 0.022950374 -0.2531618 0.1773844 -0.056085296 -0.42051834 -0.06433235
0.09201766 0.20068851 0.2351233 0.41341147 -0.17369011 -0.14347503 0.007947169 -0.17197222
0.23070228 0.35211957 -0.14586142 0.013428032 0.17969885 -0.3586368 0.0687866 0.15856777
0.3193213 0.10078433 0.09564606 -0.059212957 -0.38390723 -0.1633344 0.04370697 -0.13952944
-0.22538602 -0.008149859 0.33981323 -0.35439423 0.16167042 0.26386592 -0.23476523 -0.13584986
-0.3821187 -0.3238546 0.33975515 0.21613967 0.053480357 0.12954517 0.40484473 0.23664285
0.3678411 0.059489865 0.32262707 -0.41571942 -0.10792571 0.04799243 0.012214949 0.37250945
0.32730478 -0.07457268 -0.18793747 -0.10977073 0.4026407 -0.17251563 -0.10791348 0.20115992
-0.04048711 -0.2639835 0.20225927 -0.009879172 0.29819635 -0.225352 -0.093780495 0.35346535
00000000: 91c2 c93e a064 d0be bff5 49be c843 403e
00000010: 5ef6 15be c4f8 e33c 3423 b23e ca62 cd3e
00000020: 4694 98be 9da2 7cbd 0f69 8b3d 4c38 513e
00000030: b47f b6be 81eb 603e 0ce9 1bbb 56e1 923e
00000040: b1e1 c43e f6fe 4f3e 3ab8 3bbe a9a5 b53e
00000050: c274 dc3e 8398 26be 92c7 a43e 6110 c93e
00000060: cd8d 503d afa1 44be 5b7e 9dbe 2ea4 24bd
00000070: a4b3 d53d 10d9 4c3e f0b6 e9bd 2e81 ae3d
00000080: a6a7 d03e 2c50 6bbe ba33 abbe 273e 903e
00000090: 2795 383d a397 8f3e b4d3 82be bf3f cabd
000000a0: 0c18 2ebe f832 433e 2236 a13e a2d4 67be
000000b0: 5d5e 44be d952 c5be 5e16 953e 34e7 9dbe
000000c0: bd2a 653d a76e b93e 151b c03e 5e07 9f3e
000000d0: b5d6 673d 2686 773c f1ab e03d efcd 02be
000000e0: ee5b d13e 2d43 143e e157 cb3e cccd 81bd
000000f0: c476 ab3d 1543 ae3e 455e b43e 50d1 5e3e
00000100: b867 81bc cc8e 6ebe 4cf2 d8be 8f53 91be
00000110: a0b4 563e 362c 6fbd 1313 a4be 5811 d63d
00000120: 74f1 bebe cd8f ddbe fb91 37bd b96b a33e
00000130: d7cf 9a3e 41ad b4be 5b38 79bd 2fbc a33e
00000140: ed25 093e 38cb 883d 9550 9c3e d072 96be
00000150: fc37 bb3e 30c6 aa3e 01ab c43e c4a3 913e
00000160: a705 823e 1f3d 4cbe 60d6 953e db70 9d3e
00000170: 6126 bfbe faa6 323e 45f6 04bd 910d ad3d
00000180: db07 813e c072 2bbd d708 c4bd a60f a13e
00000190: 06e7 ad3e 0081 18be 5900 59be f61a 733e
000001a0: da08 b93e 6518 0e3e be6d 7f3e 4e2d 80be
000001b0: 38b2 bdbe a7fc e6bd da20 933d 85a3 803e
000001c0: 4297 873e f5b3 af3e a4a3 52be bd88 a23e
000001d0: 1e34 2b3e 53c4 2f3e 7ed2 40be fa22 bc3e
000001e0: 25bb 8a3e d870 3ebd 98d4 213c dc70 9a3d
000001f0: b49c a6bd 0abc 083e d9c8 79be 7089 d93d
00000200: 1488 c8bd c09f cb3b f30c 853e ba03 a43b
00000210: e91f 843e f7d8 10be 9739 a6bd 653c ca3e
00000220: 0b9f 893e 73c1 b33e 7f3e cabe 3b3e 8b3e
00000230: e0ad 3cbe 36f7 38be 159a 333e c372 7ebe
00000240: 3482 433d 0620 b9be 0d0b dbbc 95f6 96be
00000250: c016 9dbd 95ff 933e 8549 cb3d e0d0 c13e
00000260: 6cd7 2fbd 978b 98be 0ae0 90be c95f 88bd
00000270: 0261 073e 1c5d 23bd d6c2 ae3e b5fa ba3e
00000280: 0371 e43e 3604 3d3e a117 d83e 278a 66bd
00000290: efd2 bb3e d52e 2a3e 35b5 6bbc 6c66 ea3d
000002a0: 8ae7 68be d9d2 1cbe 9754 a83d 7f53 20be
000002b0: 86e6 cfbe 2767 90be 935e e53d f8b5 9a3e
000002c0: 872c 12bd 1ed1 dbbe 8a75 c6be 13b7 9f3e
000002d0: f4dd a13d ac4f cf3d 467c e53c 7734 a8be
000002e0: 933b 873c 3a36 af3e 6c02 bc3c 6c9e 81be
000002f0: 42a4 353e b2b9 65bd 2e4e d7be aec0 83bd
00000300: c173 bc3d 4a81 4d3e 2ac4 703e abaa d33e
00000310: d2db 31be 1eeb 12be d834 023c 7c19 30be
00000320: 383d 6c3e 0449 b43e b25c 15be 4001 5c3c
00000330: fa02 383e 3e9f b7be fddf 8c3d 975f 223e
00000340: 157e a33e 0468 ce3d 15e2 c33d 4989 72bd
00000350: 7d8f c4be 2241 27be 1406 333d cee0 0ebe
00000360: 98cb 66be fc86 05bc 00fc ad3e 2973 b5be
00000370: ee8c 253e 6f19 873e 4c66 70be 3a1c 0bbe
00000380: 10a5 c3be 45d0 a5be 63f4 ad3e b853 5d3e
00000390: 380e 5b3d 7da7 043e cf47 cf3e 8152 723e
000003a0: ab55 bc3e a5ab 733d 602f a53e 2dd9 d4be
000003b0: 2808 ddbd b693 443d 3621 483c 8fb9 be3e
000003c0: 7e94 a73e 90b9 98bd ae72 40be 7acf e0bd
000003d0: ec26 ce3e f0a7 30be be01 ddbd defc 4d3e
000003e0: d0d5 25bd d828 87be 0e1d 4f3e 40dc 21bc
000003f0: 31ad 983e adc2 66be fd0f c0bd 69f9 b43e

Guarantee_convpools.2.conv.bias f4 [16]
0.04150202 0.0 0.006000319 0.043136485 0.031820606 0.026212221 0.0033721088 0.041961204
-0.013866203 -0.01434644 -0.0027039952 -0.009428732 0.0 -0.002589676 0.029418644 0.027640995
00000000: 06fe 293d 0000 0000 539e c43b e2af 303d
00000010: 5356 023d 03bb d63c 99fe 5c3b 83df 2b3d
00000020: 122f 63bc 550d 6bbc 8335 31bb f87a 1abc
00000030: 0000 0000 8eb7 29bb 5eff f03c 5e6f e23c

Guarantee_convpools.2.pool.att f4 [1, 32]
-0.4554226 -0.3869149 0.28549305 0.635021 -0.12202441 0.39630118 -0.1906873 0.20405968
0.1937282 0.4091471 0.095781334 0.2593354 0.0794803 0.29004312 -0.06788598 -0.07397123
0.25014767 0.19499853 0.41245556 -0.20428827 0.2960214 0.1426943 -0.22991201 -0.4213703
0.12409498 -0.28873685 0.13424145 0.008541969 0.41676065 0.17616622 -0.24362853 -0.15242524
00000000: 272d e9be b619 c6be 252c 923e bc90 223f
00000010: efe7 f9bd fde7 ca3e 8843 43be 05f5 503e
00000020: af60 463e bb7b d13e 0129 c43d 9cc7 843e
00000030: 91c6 a23d 8880 943e ce07 8bbd 3a7e 97bd
00000040: 5b13 803e b2ad 473e 602d d33e f230 51be
00000050: 1e90 973e 741e 123e 0e6e 6bbe d9bd d7be
00000060: 8225 fe3d 51d5 93be 9776 093e 9df3 0b3c
00000070: a761 d53e eb64 343e c279 79be 5d15 1cbe

Transaction_convpools.0.conv.weight f4 [2, 8]
0.3662196 0.6163583 0.38505417 0.2905885 0.5660878 0.41090745 -0.21031791 -0.06394541
-0.7894484 0.43495625 -0.04964074 0.43391636 -0.30175874 -0.41951916 0.23042439 -0.72148824
00000000: 2381 bb3e a8c9 1d3f d225 c53e 04c8 943e
00000010: 21eb 103f 7662 d23e 945d 57be d0f5 82bd
00000020: 4a19 4abf 96b2 de3e 1754 4bbd 492a de3e
00000030: 1f80 9abe 37cb d6be 5ff4 6b3e 74b3 38bf

Transaction_convpools.0.conv.bias f4 [8]
0.03356301 0.013697116 -0.047369067 0.020203885 -0.027982822 0.017809337 0.01501694 -0.04166571
00000000: 5e79 093d de69 603c 1106 42bd 9e82 a53c
00000010: 3b3c e5bc e3e4 913c 9d09 763c aaa9 2abd

Transaction_convpools.0.pool.att f4 [1, 16]
0.34608293 0.21356425 0.09278265 0.5504706 -0.20127827 -0.06036764 -0.15750535 0.12646645
0.61838335 -0.082376584 -0.16146512 0.48615146 0.1294101 -0.59999007 0.03299773 0.27868983
00000000: c831 b13e 96b0 5a3e d404 be3d a4eb 0c3f
00000010: e41b 4ebe 0f44 77bd 1549 21be 6c80 013e
00000020: 5f4e 1e3f 0eb5 a8bd 1d57 25be d8e8 f83e
00000030: 1584 043e f398 19bf a128 073d 6fb0 8e3e

Transaction_convpools.1.conv.weight f4 [8, 8]
-0.3737427 0.05422125 0.52345467 -0.05478242 -0.4691924 -0.10396011 -0.21343344 -0.5298613
-0.41738614 0.16051675 -0.22061062 0.22653128 -0.35303923 -0.48913553 0.043846324 0.2583843
-0.08329122 -0.32622722 -0.20364395 -0.39290226 0.53452027 0.3733595 0.54895735 -0.27524436
0.6011691 0.21093497 0.1638391 0.30010605 0.41263887 0.5934399 -0.13024178 -0.20250334
-0.01186136 -0.42300075 0.009444171 -0.536243 -0.48923132 -0.40777993 -0.39354962 -0.36524493
-0.23857617 0.26446986 0.37186745 0.50018156 -0.53277564 0.5083835 0.32812372 -0.033295777
-0.36063048 0.35272673 -0.427008 0.1533756 -0.42350632 -0.60186297 -0.05485143 0.53590524
0.05595398 0.32004255 -0.45063153 -0.33503696 -0.35241538 0.09679166 -0.01794446 -0.42946512
00000000: 345b bfbe 1a17 5e3d 2001 063f 8863 60bd
00000010: fc39 f0be 0ae9 d4bd 4c8e 5abe fda4 07bf
00000020: a3b3 d5be 815e 243e c0e7 61be d1f7 673e
00000030: 8fc1 b4be f96f fabe 3498 333d f24a 843e
00000040: 9694 aabd 4107 a7be 0a88 50be 7c2a c9be
00000050: 52d6 083f fa28 bf3e 7888 0c3f d4ec 8cbe
00000060: 38e6 193f 56ff 573e 70c5 273e 80a7 993e
00000070: 6745 d33e adeb 173f 1a5e 05be 095d 4fbe
00000080: 2656 42bc 8e93 d8be b9bb 1a3c 3947 09bf
00000090: 877c fabe 88c8 d0be 567f c9be 6201 bbbe
000000a0: 504d 74be 9868 873e 6965 be3e e60b 003f
000000b0: fc63 08bf 6c25 023f d5ff a73e 2761 08bd
000000c0: 8fa4 b8be 9998 b43e cba0 dabe 7e0e 1d3e
000000d0: d2d5 d8be b113 1abf e5ab 60bd 1631 093f
000000e0: 0030 653d 9edc a33e 2db9 e6be f789 abbe
000000f0: ca6f b4be b53a c63d 4300 93bc dae2 dbbe

Transaction_convpools.1.conv.bias f4 [8]
-0.006223841 0.010426516 0.027463017 0.041518286 -0.005028873 -0.0015932269 -0.017265875 -0.005120937
00000000: 5df1 cbbb fad3 2a3c 1ffa e03c 140f 2a3d
00000010: 3fc9 a4bb d3d3 d0ba 2a71 8dbc 88cd a7bb

Transaction_convpools.1.pool.att f4 [1, 16]
-0.09625803 -0.20789638 -0.5544301 -0.4896511 -0.15755446 -0.24562868 -0.40344003 0.41653758
0.08993607 0.39971972 0.5889184 0.2206065 0.67637324 -0.54126304 0.21719132 -0.11309719
00000000: ee22 c5bd cae2 54be 22ef 0dbf 8db3 fabe
00000010: f555 21be 1686 7bbe b18f cebe 6a44 d53e
00000020: 6730 b83d 10a8 cc3e 5bc3 163f ace6 613e
00000030: cc26 2d3f 3790 0abf 6767 5e3e 809f e7bd

Transaction_convpools.2.conv.weight f4 [8, 8]
-0.4178963 -0.4025979 0.42446065 -0.03351155 -0.26226628 -0.56171876 0.16146259 -0.39369008
-0.22976018 -0.08238673 0.0039739623 0.18614134 -0.47372636 -0.15480095 0.21404697 0.5539652
0.43440074 -0.26759374 -0.169263 -0.1602842 -0.30020973 -0.39672732 0.42219344 0.58553165
0.4409096 -0.4107381 -0.097797275 -0.22531806 0.24596164 0.49915853 0.017937917 0.30235058
0.34133822 0.23867095 0.5359629 -0.37386313 0.09135176 -0.034374505 -0.37756455 -0.42146316
-0.5217465 -0.17085361 -0.427224 -0.15543142 -0.41278517 0.42024267 0.6123309 0.39963123
-0.14685413 0.25379914 0.123791724 0.6085575 0.5625426 -0.036491774 -0.51493216 0.48709673
-0.3130064 -0.09509301 0.43011257 0.30735332 -0.22608714 -0.21827404 0.45511127 0.069733605
00000000: 81f6 d5be 5021 cebe e852 d93e 6843 09bd
00000010: c447 86be cdcc 0fbf 7356 253e bf91 c9be
00000020: 4146 6bbe 60ba a8bd 0338 823b d69b 3e3e
00000030: 438c f2be 2484 1ebe 212f 5b3e aad0 0d3f
00000040: c669 de3e 0c02 89be 4853 2dbe 8b21 24be
00000050: 17b5 99be d81f cbbe bd29 d83e 67e5 153f
00000060: e7be e13e 444c d2be f049 c8bd c7b9 66be
00000070: 5edd 7b3e b591 ff3e 8af2 923c b2cd 9a3e
00000080: e2c3 ae3e 2866 743e dd34 093f fd6a bfbe
00000090: a216 bb3d 48cc 0cbd 2450 c1be 05ca d7be
000000a0: 2e91 05bf 40f4 2ebe 1bbd dabe 6a29 1fbe
000000b0: 9458 d3be 0c2a d73e b8c1 1c3f 779c cc3e
000000c0: ee60 16be f6f1 813e 8486 fd3d 6dca 1b3f
000000d0: cb02 103f 6678 15bd 98d2 03bf be64 f93e
000000e0: 6042 a0be 20c0 c2bd b737 dc3e 6a5d 9d3e
000000f0: 6383 67be 3b83 5fbe 5804 e93e 7ed0 8e3d

Transaction_convpools.2.conv.bias f4 [8]
0.054079533 -0.0060003195 -0.008590853 0.021233702 0.0048915157 0.028391955 0.032460157 0.045934554
00000000: 8082 5d3d 549e c4bb a6c0 0cbc 4df2 ad3c
00000010: 0249 a03b 3f96 e83c f1f4 043d df25 3c3d

Transaction_convpools.2.pool.att f4 [1, 16]
0.7462862 -0.08343541 -0.19328819 0.42238662 -0.2867616 0.3061683 -0.1391252 0.14375806
0.24191564 -0.5983094 -0.20003399 0.13750519 0.014129448 -0.38631916 -0.33779144 -0.4293161
00000000: 9d0c 3f3f 2fe0 aabd 57ed 45be 0f43 d83e
00000010: 6bd2 92be 17c2 9c3e d676 0ebe 5035 133e
00000020: bcb8 773e ce2a 19bf b6d5 4cbe 29ce 0c3e
00000030: 337f 673c a0cb c5be 00f3 acbe 52cf dbbe

t2g.weight f4 [16, 16]
-0.15962252 -0.0075446963 -0.11567369 -0.23340774 0.09802863 -0.21851042 -0.2243042 -0.1464011
0.098962784 -0.050010204 -0.18607366 -0.20676121 -0.22885436 0.19901729 0.19561026 0.08171931
0.03185931 0.0850634 -0.08506787 0.120628476 -0.17726761 -0.2212784 0.16492051 -0.033289224
-0.15213981 -0.016908318 0.13307479 -0.13766474 0.07183674 0.053366214 0.09827724 0.064507335
0.19760677 0.12493339 0.23317826 -0.06276259 -0.1366939 -0.19712162 0.08830744 0.18062702
0.14170471 -0.0067406595 -0.042029917 0.10562992 0.033736825 -0.08073324 0.14943102 0.17045763
-0.035545737 -0.22486407 -0.08192858 0.11438024 -0.075636625 -0.2377795 0.022662312 -0.24731132
-0.015726417 -0.12617418 -0.10058102 0.015670776 -0.032044798 0.083349645 0.12759042 -0.05848244
-0.0038855076 -0.14887881 -0.24797374 0.0036161244 0.17156804 0.027815908 0.15335363 -0.003949821
0.18868381 0.029294819 0.04128158 -0.01940018 0.17874661 -0.20766681 0.21942285 0.12053475
-0.071392566 -0.07004219 -0.12587532 0.21605858 -0.1489254 -0.18531567 0.24882269 -0.1414868
0.10545683 0.19146094 -0.1539602 -0.110143185 0.05354047 -0.07859135 -0.024059385 -0.13995749
-0.06812516 0.18213317 -0.09875181 -0.24472922 0.063409716 0.09343666 0.24567175 -0.024878532
0.048321098 0.04074931 0.22945625 0.023631245 -0.10976818 0.22179008 -0.1970323 0.17646289
0.019604087 0.0043519735 0.2331835 -0.12011269 -0.13665232 -0.19618979 0.20632508 0.18078145
-0.04099092 -0.04290688 0.02956307 -0.18088397 -0.12618437 -0.042749375 -0.22286949 0.238006
0.21237436 0.07005823 -0.13814056 0.0730944 -0.0024169087 -0.1723732 0.15176365 -0.22346485
-0.041272253 -0.018327236 -0.054255992 0.1846199 -0.07172945 -0.20014611 0.22849345 -0.19892895
-0.058028847 -0.20605227 -0.17332098 0.13509455 -0.19001845 -0.016913205 -0.21613708 0.12349585
0.06781891 -0.09299818 0.03914526 0.10272592 -0.22597998 0.12028238 -0.21450448 0.04954788
0.098603934 -0.16896722 -0.06909335 -0.111086756 -0.113155365 0.021009147 0.012938291 -0.041822523
0.05217877 -0.056182355 0.03526202 -0.034365743 -0.03398612 -0.16048884 -0.15164533 -0.0420765
-0.24254361 0.08338353 -0.12404254 -0.058060437 -0.22756556 -0.13961142 -0.2049143 0.11020675
-0.16092229 0.03300336 -0.18100423 -0.1542638 -0.1007373 -0.14590356 -0.18050471 -0.088953406
0.15146077 0.066244274 -0.08636913 -0.14798382 0.061719716 0.21056846 -0.14764404 -0.20651835
0.14669836 -0.024358928 -0.015341103 0.039203107 0.23225954 -0.21897373 0.1749093 0.15615508
-0.19982162 -0.19978505 0.12220308 0.24971837 -0.14095789 0.015577167 0.07167661 -0.14965609
-0.006785035 0.07676482 0.07666707 -0.055690885 -0.1276057 -0.015444577 0.21859783 0.10014635
-0.08474371 -0.030937225 0.20055854 -0.14543596 0.022164851 0.007660657 -0.12032685 0.027593344
-0.011940509 -0.187017 -0.23756337 -0.039776117 -0.18811527 -0.24406242 -0.1845268 0.08018473
-0.1983012 0.12049505 -0.17064184 0.20818129 -0.06019309 -0.09170383 0.11965039 -0.06637403
-0.16292459 -0.00041219592 0.1861201 0.24808142 -0.15260386 0.17633808 -0.1831423 0.034971446
00000000: 1674 23be 8039 f7bb 54e6 ecbd 7002 6fbe
00000010: 3cc3 c83d 32c1 5fbe 00b0 65be 2cea 15be
00000020: 00ad ca3d 80d7 4cbd 188a 3ebe 36b9 53be
00000030: cc58 6abe 30cb 4b3e 0e4e 483e 745c a73d
00000040: e87e 023d b835 ae3d 1038 aebd 100c f73d
00000050: a485 35be ce96 62be ece0 283e 485a 08bd
00000060: 8aca 1bbe 5083 8abc c244 083e fcf7 0cbe
00000070: 241f 933d 8896 5a3d 9445 c93d 6c1c 843d
00000080: 6e59 4a3e 14dd ff3d 48c6 6e3e ac89 80bd
00000090: 7cf9 0bbe 40da 49be 88da b43d 4af6 383e
000000a0: 0a1b 113e c0e0 dcbb 9027 2cbd 8054 d83d
000000b0: a02f 0a3d 7857 a5bd 7204 193e 728c 2e3e
000000c0: 6898 11bd c442 66be 2cca a7bd 3040 ea3d
000000d0: 60e7 9abd 787c 73be 50a6 b93c 2e3f 7dbe
000000e0: b0d4 80bc ce33 01be 6cfd cdbd 0060 803c
000000f0: 6841 03bd 38b3 aa3d 10a7 023e 488b 6fbd
00000100: 00a4 7ebb b073 18be d4ec 7dbe 80fc 6c3b
00000110: 88af 2f3e 30de e33c bc08 1d3e 806d 81bb
00000120: 5436 413e b0fb ef3c e016 293d 20ed 9ebc
00000130: 5a09 373e 9ca6 54be 62b0 603e ecda f63d
00000140: 4436 92bd 4872 8fbd 76e5 00be 763e 5d3e
00000150: e67f 18be 64c3 3dbe 60cb 7e3e eae1 10be
00000160: c0f9 d73d 560e 443e bea7 1dbe c092 e1bd
00000170: 404d 5b3d 80f4 a0bd 3018 c5bc 0451 0fbe
00000180: 3485 8bbd 1e81 3a3e 643e cabd 4c9a 7abe
00000190: f4dc 813d b85b bf3d 6091 7b3e 10ce cbbc
000001a0: 58ec 453d c0e8 263d 94f6 6a3e 5096 c13c
000001b0: 24ce e0bd f01c 633e d6c2 49be b0b2 343e
000001c0: c098 a03c 009b 8e3b a8c7 6e3e a4fd f5bd
000001d0: 96ee 0bbe fae5 48be e246 533e c61e 393e
000001e0: 18e6 27bd 20bf 2fbd 402e f23c a639 39be
000001f0: 7a36 01be f819 2fbd e637 64be d8b7 733e
00000200: aa78 593e b07a 8f3d b874 0dbe 84b2 953d
00000210: 0065 1ebb 9a82 30be ee67 1b3e f8d3 64be
00000220: 180d 29bd 0023 96bc 883b 5ebd 000d 3d3e
00000230: e4e6 92bd 1af3 4cbe 30fa 693e 08b4 4bbe
00000240: a8af 6dbd 5eff 52be 0e7b 31be 3a56 0a3e
00000250: 3294 42be 908d 8abc 0a53 5dbe 64eb fc3d
00000260: a4e4 8a3d d475 bebd c856 203d f861 d23d
00000270: 4c67 67be 9c56 f63d 10a7 5bbe b8f2 4a3d
00000280: dcf0 c93d be05 2dbe d080 8dbd 7481 e3bd
00000290: 00be e7bd 601b ac3c 20fb 533c 184e 2bbd
000002a0: 68b9 553d 781f 66bd e86e 103d 18c3 0cbd
000002b0: 0835 0bbd 3057 24be ea48 1bbe 6858 2cbd
000002c0: 5a5d 78be fcc4 aa3d 040a febd c8d0 6dbd
000002d0: f206 69be 4cf6 0ebe 0ed5 51be 14b4 e13d
000002e0: d0c8 24be 882e 073d 2c59 39be 54f7 1dbe
000002f0: 5c4f cebd be67 15be 3ad6 38be 342d b6bd
00000300: 8818 1b3e 14ab 873d 4ce2 b0bd 1289 17be
00000310: d0cd 7c3d 429f 573e 0030 17be 8c79 53be
00000320: 1838 163e 608c c7bc 4059 7bbc 7093 203d
00000330: 72d5 6d3e a63a 60be 6c1b 333e 1ee7 1f3e
00000340: 0a9e 4cbe 7494 4cbe 9c45 fa3d 2cb6 7f3e
00000350: 4457 10be 6037 7f3c 30cb 923d 723f 19be
00000360: 0055 debb e036 9d3d a003 9d3d 201c 64bd
00000370: 12ab 02be 400b 7dbc 1cd8 5f3e 8819 cd3d
00000380: 1c8e adbd 1070 fdbc 385f 4d3e 2aed 14be
00000390: 1093 b53c 4006 fb3b ec6d f6bd 700b e23c
000003a0: 20a2 43bc 6281 3fbe d043 73be 48ec 22bd
000003b0: 4aa1 40be 80eb 79be 98f4 3cbe e437 a43d
000003c0: 780f 4bbe 1cc6 f63d bcbc 2ebe 7a2d 553e
000003d0: 088d 76bd 38cf bbbd 440b f53d 1cef 87bd
000003e0: b4d5 26be 001c d8b9 4496 3e3e 0e09 7e3e
000003f0: 3044 1cbe f891 343e a889 3bbe 383e 0f3d

t2g.bias f4 [16]
0.10796568 -0.14807615 0.20868084 -0.16350815 0.14326528 -0.046268225 -0.17594334 -0.025026351
0.14107153 -0.07733044 0.059348434 0.078935415 0.20737138 0.14932287 -0.009581447 0.123681694
00000000: 1c1d dd3d 46a1 17be 6eb0 553e ae6e 27be
00000010: 22b4 123e c083 3dbd 7e2a 34be 1004 cdbc
00000020: 0e75 103e 6c5f 9ebd 5817 733d e4a8 a13d
00000030: 2a59 543e 18e8 183e 80fb 1cbc d44c fd3d
